Всякая всячина/models/ctgan_Iris_model.pkl (torch, 879545 bytes, 14 tensors)

weight f4 [256, 131]
-0.03958391 -0.0036013173 0.012090621 0.022639837 -0.049558163 0.07687853 0.0061978614 0.030728122
0.05026329 -0.05322315 -0.014583816 -0.025104115 0.028942991 0.054342795 -0.030867096 0.05769795
-0.074964166 0.06931799 0.07507642 -0.05951269 -0.06246529 -0.040028613 0.046641063 0.021677941
-0.0143674025 -0.059828058 -0.060720038 0.06998368 -0.02051837 0.020546675 -0.09789398 -0.050463594
0.069598585 0.013752769 -0.0122410655 -0.0030074199 -0.04611226 0.03580108 0.055275537 -0.0039940067
0.076320775 0.056680657 0.02589245 -0.014790385 0.08425575 -0.0030372317 0.045117352 0.01230256
-0.057110626 -0.008188613 -0.077121384 -0.008377382 0.055333145 -0.074583866 -0.014140445 0.0637761
0.0930964 -0.078505166 -0.0657158 -0.0034218282 0.07861642 -0.05436725 0.062447622 -0.017258044
0.039259844 0.024251454 0.07548404 0.013126681 -0.044475246 -0.010348157 0.07148313 0.0695622
-0.098859526 -0.011497407 0.008852113 -0.012689112 0.060404036 -0.06602968 -0.0051822113 -0.068395056
0.08065726 -0.041547514 -0.039430562 -0.08202671 0.019179936 -0.078525946 0.03247329 0.01116208
-0.07089672 -0.043727882 -0.05820899 -0.028264496 0.06233365 0.025628764 -0.0030091894 -0.007868872
-0.0018944398 -0.027809205 0.086275466 -0.035235494 0.04098048 -0.030601941 0.07842455 -0.030557241
0.10064091 -0.061029777 0.08948646 0.046348013 -0.016381977 -0.04218767 -0.04376429 -0.05095489
0.0076178443 -0.02003832 0.0284931 0.019930027 -0.07263886 -0.04087923 -0.066033475 -0.042285874
0.057192598 0.073530644 -0.064466834 -0.055763394 -0.06658508 0.04414566 -0.08351581 -0.08165487
-0.100171424 0.040390782 0.11112398 -0.028075775 0.027840108 0.08891507 0.0022481577 -0.07633081
-0.012905654 0.06459974 -0.07262465 0.010252903 -0.09554682 0.042534184 0.090459615 -0.074441046
0.07294635 -0.07674499 -0.037396144 0.0756288 0.027137695 -0.07545837 0.023521831 0.00064147904
-0.019142821 -0.015170354 -0.07405857 -0.03929398 -0.074644744 0.016289296 -0.008380774 -0.099213764
0.01941418 -0.01234212 0.027010133 -0.009372813 0.053761836 0.062396474 -0.056800377 0.009031306
-0.03625191 -0.023324465 -0.08089896 -0.06264377 -0.0004418905 -0.039574176 -0.07538368 4.3748427e-05
0.06954437 0.059931498 -0.037052795 0.031213678 -0.028306471 0.023519369 0.030675866 0.038526826
0.07291129 -0.0023990043 -0.0045392225 -0.005926624 0.074134134 -0.03203616 -0.04893289 -0.017318426
-0.02601152 0.036431704 0.0541671 -0.08369469 0.031258058 0.006356535 0.04166952 -0.03612705
-0.075635664 -0.0037536202 0.080632895 -0.062402334 0.058271434 -0.04825349 0.081766814 -0.0137168765
-0.029462053 -0.05390106 0.08059484 0.08268603 -0.01727022 -0.08926278 0.013910921 0.005421296
-0.018232174 -0.003514499 -0.060650613 -0.01936687 -0.051794507 0.04015404 -0.052736945 0.032844394
0.048326734 -0.04765661 0.07274462 0.01708462 0.065241605 0.08876499 -0.08849996 0.021248642
0.05209532 -0.058228794 0.06979333 -0.00730856 -0.04508165 -0.03932146 0.053113095 -0.038666323
-0.02480307 0.012309423 -0.05081874 0.038604707 0.046810545 -0.0050074398 -0.094442554 0.033567898
0.025851311 -0.076909356 -0.05776727 0.062072404 -0.08133098 0.033448905 0.026223082 -0.047530096
00000000: bd22 22bd 1404 6cbb bd17 463c 2e77 b93c
00000010: 80fd 4abd 7e72 9d3d 6e17 cb3b 8bb9 fb3c
00000020: e1e0 4d3d 8500 5abd f5f0 6ebc 25a7 cdbc
00000030: da19 ed3c 8d96 5e3d fedc fcbc b054 6c3d
00000040: d086 99bd 97f6 8d3d abc1 993d 94c3 73bd
00000050: 9bdb 7fbd 0bf5 23bd b30a 3f3d f095 b13c
00000060: 4165 6bbc 440e 75bd 93b5 78bd 9b53 8f3d
00000070: 2416 a8bc 8051 a83c a47c c8bd eab2 4ebd
00000080: b489 8e3d 4b53 613c c08e 48bc 2218 45bb
00000090: 36e0 3cbd 27a4 123d 9a68 623d 28e0 82bb
000000a0: 114e 9c3d fa29 683d 671c d43c 5f53 72bc
000000b0: 478e ac3d 4b0c 47bb f9cc 383d ad90 493c
000000c0: d5ec 69bd 8829 06bc d1f1 9dbd 4941 09bc
000000d0: 02a5 623d 6dbf 98bd 53ad 67bc 0b9d 823d
000000e0: 53a9 be3d 51c7 a0bd 0196 86bd c040 60bb
000000f0: a501 a13d 32b0 5ebd 14c9 7f3d be60 8dbc
00000100: eece 203d fcaa c63c 6097 9a3d 4a11 573c
00000110: ad2b 36bd 518b 29bc bf65 923d a076 8e3d
00000120: dd76 cabd 9f5f 3cbc 7408 113c fee5 4fbc
00000130: 396a 773d 923a 87bd 8acf a9bb b512 8cbd
00000140: a22f a53d ba2d 2abd f181 21bd 9ffd a7bd
00000150: 3e1f 9d3c 36d2 a0bd b602 053d 28e1 363c
00000160: 4d32 91bd 021c 33bd 8d6c 6ebd f28a e7bc
00000170: 9251 7f3d 6af3 d13c d235 45bb 71ec 00bc
00000180: da4e f8ba 21d0 e3bc 31b1 b03d 1853 10bd
00000190: 26db 273d ecb0 fabc 0d9d a03d 2e53 fabc
000001a0: d21c ce3d 5cfa 79bd ad44 b73d 6ad7 3d3d
000001b0: 7f33 86bc facc 2cbd 2f42 33bd 13b6 50bd
000001c0: 1c9f f93b 6727 a4bc 5d6a e93c 4c44 a33c
000001d0: afc3 94bd fb70 27bd 8f3c 87bd f433 2dbd
000001e0: c942 6a3d 3c97 963d 3007 84bd 2868 64bd
000001f0: c25d 88bd 14d2 343d 560a abbd ab3a a7bd
00000200: ad26 cdbd ce70 253d f894 e33d 2bff e5bc
00000210: f010 e43c 1b19 b63d d455 133b 5453 9cbd
00000220: 3c72 53bc de4c 843d 3cbc 94bd cbfb 273c
00000230: 0dae c3bd 5338 2e3d e442 b93d 8c74 98bd
00000240: e564 953d 7a2c 9dbd b32c 19bd 46e3 9a3d
00000250: df4f de3c eb89 9abd dbb0 c03c ee28 283a
00000260: 68d1 9cbc 148d 78bc 05ac 97bd b9f2 20bd
00000270: 58df 98bd 2171 853c 844f 09bc 9630 cbbd
00000280: 7d0a 9f3c 9a36 4abc 5b44 dd3c 6d90 19bc
00000290: 5f35 5c3d 7293 7f3d 83a7 68bd 0bf8 133c
000002a0: e27c 14bd f312 bfbc 5bae a5bd 604b 80bd
000002b0: 8aad e7b9 8818 22bd c262 9abd 847e 3738
000002c0: 476d 8e3d bb7a 753d acc4 17bd d4b3 ff3c
000002d0: f9e2 e7bc b1ab c03c f44b fb3c 4ece 1d3d
000002e0: 8452 953d 9d38 1dbb c2bd 94bb 2034 c2bb
000002f0: a3d3 973d 5938 03bd db6d 48bd 5fdf 8dbc
00000300: 1c16 d5bc 6939 153d 52de 5d3d 1f68 abbd
00000310: 7308 003d 7b4a d03b a9ad 2a3d f5f9 13bd
00000320: dfe6 9abd 4cff 75bb dc22 a53d 9799 7fbd
00000330: 07ae 6e3d 74a5 45bd 5c75 a73d c0bc 60bc
00000340: 675a f1bc 5cc7 5cbd e80e a53d 4b57 a93d
00000350: 477a 8dbc 68cf b6bd a2ea 633c 21a5 b13b
00000360: a45b 95bc 8253 66bb c76c 78bd 45a7 9ebc
00000370: 7a26 54bd 9078 243d b202 58bd d887 063d
00000380: 41f2 453d 9433 43bd 22fb 943d 0cf5 8b3c
00000390: 649d 853d 6bca b53d 783f b5bd a211 ae3c
000003a0: e761 553d 5181 6ebd ceef 8e3d a57c efbb
000003b0: 89a7 38bd 8a0f 21bd 1e8d 593d 9460 1ebd
000003c0: cf2f cbbc 76ad 493c 5027 50bd f81f 1e3d
000003d0: 6abc 3f3d 7315 a4bb 196b c1bd 7e7e 093d
000003e0: 21c6 d33c a782 9dbd 5f9d 6cbd a23f 7e3d
000003f0: db90 a6bd b801 093d cad1 d63c ebae 42bd

bias f4 [256]
2.2843846e-05 1.6150807e-08 -1.0323742e-05 3.0853244e-05 4.710301e-05 3.8288337e-05 0.00017121524 -4.816988e-05
4.898082e-05 -2.1855103e-05 5.5010227e-05 -3.503521e-05 2.613548e-05 -0.00013647975 -5.654609e-05 2.386218e-05
3.2220785e-05 3.2860866e-05 5.0545772e-05 -5.2818577e-05 4.4292945e-05 0.000117545875 -1.9237395e-05 7.4912236e-06
-3.658958e-05 6.5848646e-05 -0.00011275743 -9.021061e-06 6.563124e-05 4.2456027e-06 -7.0411206e-06 -0.00014750219
-5.7381194e-06 4.3055512e-05 -3.738574e-05 1.711295e-05 -3.1960622e-05 2.6899346e-05 -4.7378668e-05 -8.52717e-05
7.5061225e-06 -9.002022e-06 3.9563176e-05 9.86504e-05 -3.789849e-05 -0.00014103636 -8.92796e-05 0.00012281758
2.398482e-05 -2.390105e-05 7.045908e-05 -7.393281e-05 2.4770077e-05 -1.4636063e-05 9.761661e-05 -3.5078952e-05
-9.725931e-05 -7.5865195e-05 1.7766579e-05 -7.3331765e-05 -4.8331796e-05 -3.896671e-05 3.314517e-05 6.0239654e-06
4.4917444e-05 3.22558e-05 0.00016008527 -8.50921e-06 1.1130603e-05 5.047032e-05 7.372147e-05 -2.7390657e-05
6.795014e-05 -0.00010839886 8.092663e-06 -8.03162e-06 3.032973e-05 -3.4156485e-05 0.00010734688 -7.86495e-05
-5.317567e-05 1.1877419e-06 4.1066636e-05 -3.9172774e-05 -2.5381587e-05 -2.1464508e-05 -9.276238e-06 -3.1696924e-05
-2.2913417e-05 -7.397486e-05 1.3648982e-05 -3.9279803e-06 3.628928e-06 6.75806e-05 2.6395937e-05 1.5775495e-05
-8.192306e-06 -2.3021114e-06 -4.3051864e-06 9.290687e-06 -1.1275463e-05 6.0968217e-05 3.720014e-05 -1.5234498e-05
-3.6857367e-05 -1.4059798e-05 -3.3933153e-05 -1.476632e-06 7.11733e-05 -5.090645e-05 6.754162e-05 -0.00017383079
-5.872556e-05 2.2756518e-05 2.9422084e-05 4.672818e-05 3.9681174e-05 1.0909204e-05 0.00016675494 -1.1347071e-05
2.0852545e-05 2.7993447e-05 2.9394017e-05 -4.0985242e-07 -5.271542e-05 5.0135623e-05 -6.7610194e-06 2.677984e-05
-2.278653e-06 5.5542154e-05 7.860944e-05 2.4787441e-05 1.7540046e-05 8.757031e-05 -4.559032e-05 2.4964369e-05
-6.723397e-05 4.0569645e-05 -4.5662975e-05 -2.4670842e-05 -4.2044972e-05 4.4362903e-05 3.931241e-05 1.857198e-05
-3.294023e-05 -2.985313e-05 -6.511398e-05 6.5561246e-05 3.6228537e-06 -2.4723544e-05 -7.151757e-05 6.822803e-05
-5.627552e-05 -2.29391e-05 -6.4733445e-05 -6.437847e-05 3.6654827e-05 8.658832e-06 4.398619e-05 2.3372118e-05
-1.9797371e-05 -5.136011e-06 -0.00011007841 4.667607e-06 -0.00014296058 -8.468026e-05 2.3555294e-06 4.9856346e-05
-3.1711133e-05 -7.013705e-05 -6.9102534e-05 -4.052058e-05 4.4964822e-06 4.4948472e-05 7.746716e-06 -5.9132577e-05
5.0738734e-05 5.1985757e-05 -1.3045054e-05 4.130137e-05 6.6319735e-05 -7.305458e-06 6.9535425e-05 4.5112825e-05
9.157534e-05 4.3236898e-05 -1.2220784e-05 8.969923e-05 -8.551891e-06 -7.859357e-05 5.7077006e-05 4.434666e-05
-2.2915166e-05 -3.588825e-05 8.68496e-05 -3.9836894e-05 -3.2490152e-05 -2.7203214e-05 -3.120123e-05 6.200715e-05
-0.000105102925 -0.00010120529 3.90422e-05 4.462213e-05 -7.212228e-05 8.246914e-05 1.9041721e-05 -5.7752313e-05
6.439412e-05 -0.00014114998 -2.860917e-05 -6.4436594e-05 -0.0001082374 -5.8049413e-06 2.0306043e-05 -0.000109813
-2.1375015e-05 -1.6352538e-05 -2.2785413e-05 -5.8919624e-05 -1.2937681e-05 -4.1455878e-05 -9.271502e-05 2.2017692e-05
-2.2381682e-06 7.44545e-05 -4.1945364e-06 -3.8382834e-05 3.4391065e-05 7.249565e-05 0.00014712973 -0.0001466393
0.000115159484 -5.1133116e-05 -7.430372e-06 5.072737e-05 -6.863018e-05 5.449843e-05 6.393139e-05 2.6055892e-05
3.1366017e-05 -3.5452238e-05 -3.885266e-05 5.6903467e-05 -2.2544504e-05 9.310516e-06 8.1692684e-05 5.2583237e-05
-1.7272705e-05 -3.894708e-05 -8.200539e-05 4.9757018e-05 -1.3995405e-05 7.021201e-06 2.4044484e-06 1.9641943e-06
00000000: c9a0 bf37 00bc 8a32 2234 2db7 6b68 0138
00000010: 7990 4538 ca97 2038 3e88 3339 040a 4ab8
00000020: c170 4d38 7a55 b7b7 c8ba 6638 c5f2 12b8
00000030: 843d db37 011c 0fb9 e72b 6db8 a42b c837
00000040: ce24 0738 16d4 0938 1c01 5438 8489 5db8
00000050: 30c7 3938 f682 f638 fe5f a1b7 1f5d fb36
00000060: c377 19b8 3918 8a38 2f78 ecb8 2959 17b7
00000070: 81a3 8938 7375 8e36 c442 ecb6 d1aa 1ab9
00000080: 128a c0b6 8196 3438 a2ce 1cb8 c88d 8f37
00000090: 750d 06b8 e8a5 e137 75b8 46b8 e5d3 b2b8
000000a0: 1add fb36 6407 17b7 a3f0 2538 88e2 ce38
000000b0: 32f5 1eb8 29e3 13b9 9f3b bbb8 98c8 0039
000000c0: 0233 c937 1d7f c8b7 6ec3 9338 600c 9bb8
000000d0: 56c9 cf37 698d 75b7 85b7 cc38 bd21 13b8
000000e0: b2f7 cbb8 d119 9fb8 7009 9537 b1c9 99b8
000000f0: dfb7 4ab8 3070 23b8 5b05 0b38 7821 ca36
00000100: bd65 3c38 674a 0738 90dc 2739 c7c2 0eb7
00000110: 93bd 3a37 18b0 5338 ea9a 9a38 fdc4 e5b7
00000120: 7480 8e38 3254 e3b8 b9c5 0737 8cbf 06b7
00000130: 996c fe37 3f43 0fb8 6b1f e138 a1f0 a4b8
00000140: f108 5fb8 806a 9f35 f73e 2c38 724d 24b8
00000150: 8bea d4b7 ae0e b4b7 24a1 1bb7 50f2 04b8
00000160: 3036 c0b7 f322 9bb8 eefd 6437 18cd 83b6
00000170: 8288 7336 0fba 8d38 d86c dd37 9e55 8437
00000180: b071 09b7 f97d 1ab6 4575 90b6 32df 1b37
00000190: bf2b 3db7 20b8 7f38 5907 1c38 ac97 7fb7
000001a0: 4c97 1ab8 5fe2 6bb7 7253 0eb8 b030 c6b5
000001b0: e042 9538 6284 55b8 22a5 8d38 5946 36b9
000001c0: 1750 76b8 40e5 be37 72cf f637 00fe 4338
000001d0: 566f 2638 ad06 3737 f0da 2e39 4d5f 3eb7
000001e0: 80ec ae37 78d3 ea37 2c93 f637 b009 dcb4
000001f0: c01a 5db8 b748 5238 b7dc e2b6 45a5 e037
00000200: f6ea 18b6 eff5 6838 1fdb a438 a0ee cf37
00000210: f622 9337 f4a5 b738 3c38 3fb8 936a d137
00000220: f6ff 8cb8 5329 2a38 3f86 3fb8 3bf4 ceb7
00000230: 7259 30b8 4e12 3a38 61e3 2438 06cb 9b37
00000240: 4d29 0ab8 1c6d fab7 cd8d 88b8 ed7d 8938
00000250: 2720 7336 6865 cfb7 b4fb 95b8 a515 8f38
00000260: 6109 6cb8 586d c0b7 81c1 87b8 ee02 87b8
00000270: d2bd 1938 6645 1137 d07d 3838 3e0f c437
00000280: 8812 a6b7 0056 acb6 e5d9 e6b8 709e 9c36
00000290: b0e7 15b9 5e96 b1b8 b013 1e36 d81c 5138
000002a0: 9201 05b8 8b16 93b8 24eb 90b8 a4f4 29b8
000002b0: 7de0 9636 0e87 3c38 e4f7 0137 1f05 78b8
000002c0: 4dd0 5438 480b 5a38 15dc 5ab7 023b 2d38
000002d0: 2315 8b38 6821 f5b6 8cd3 9138 8737 3d38
000002e0: 230c c038 4459 3538 de07 4db7 e81c bc38
000002f0: 187a 0fb7 9ad2 a4b8 f865 6f38 dd00 3a38
00000300: f239 c0b7 b786 16b8 0623 b638 8a16 27b8
00000310: 0946 08b8 7532 e4b7 11de 02b8 d609 8238
00000320: b46a dcb8 2d3e d4b8 3ec1 2338 a628 3b38
00000330: 5b40 97b8 48f3 ac38 c9bb 9f37 133b 72b8
00000340: 540b 8738 a901 14b9 bafd efb7 2222 87b8
00000350: 83fd e2b8 11c8 c2b6 e556 aa37 684b e6b8
00000360: 7f4e b3b7 cf2c 89b7 4d23 bfb7 7720 77b8
00000370: eb0e 59b7 e9e0 2db8 ff6f c2b8 a2b2 b837
00000380: 7033 16b6 7524 9c38 cbbe 8cb6 41fd 20b8
00000390: 203f 1038 ce08 9838 d646 1a39 30c3 19b9
000003a0: c781 f138 c477 56b8 6952 f9b6 19c4 5438
000003b0: 8ced 8fb8 3e95 6438 e712 8638 9a92 da37
000003c0: 018f 0338 8db2 14b8 baf5 22b8 a2ab 6e38
000003d0: f41d bdb7 5d34 1c37 6d52 ab38 d28c 5c38
000003e0: dae4 90b7 1c5b 23b8 4ffa abb8 31b2 5038
000003f0: cfcd 6ab7 a897 eb36 1c5c 2136 9ad0 0336

weight f4 [256]
0.97665244 0.9723615 1.0126164 1.0296847 1.0084103 1.0032321 1.0067974 0.980906
1.009161 0.9916924 0.98249656 1.0163805 1.0233338 1.0114208 1.0072562 0.9712266
1.0328822 1.0193385 1.0402403 1.0141603 1.023515 0.97246933 1.0159894 0.9601978
1.0125619 0.99734014 1.0127727 0.970463 1.0315212 0.989816 0.9851808 1.0153888
1.0062213 0.98718256 0.96485835 0.97849554 1.0228614 0.9887327 1.0000105 0.98657084
1.0119591 0.9881464 0.9970312 1.0225178 1.0271753 0.9999833 0.9771711 0.99765027
0.989395 0.9834393 1.0047772 0.9925889 0.9964732 0.9906716 1.0077201 0.9959796
1.0171616 1.0013396 0.9788735 1.0184962 0.97643036 0.9571681 1.0191575 0.98598444
0.9971911 1.0025268 0.9843455 1.0129875 1.0406059 1.0181788 1.0000703 1.0154732
1.0002923 0.9856645 1.000018 0.9934326 1.0095259 0.97583807 0.99581295 0.9884042
1.0380888 1.0306307 0.9922418 0.9798716 0.9491048 0.9861907 1.0108739 0.97882485
0.9694748 0.9891256 1.0098711 0.99052507 0.96218127 0.9884061 0.99468666 0.99054104
0.99760216 0.98846537 1.0068156 1.0053566 0.9755881 0.99524766 1.0227199 1.0047283
0.9815352 0.98807967 0.9932358 0.978775 1.0220702 0.978775 0.9930929 1.0206492
1.0179726 0.986515 1.022514 0.9922383 1.0033929 1.0073612 1.0336027 0.9872504
0.9798039 0.9955464 0.9875075 0.9898754 0.9895762 0.9919609 1.0162623 0.99005944
0.9990971 1.0210881 1.007902 1.0273615 0.98236465 1.024828 0.9956473 0.97237515
0.9703204 1.0076245 1.0046362 0.9815413 1.0009388 0.9986044 1.022805 1.0127589
0.98267734 0.9776279 0.97999036 1.0092872 1.0279567 1.0035665 0.9839441 0.9977163
0.9817846 1.0240079 1.0112104 1.0183545 1.0260166 0.98302716 0.99415845 0.9774785
1.0054332 0.9984934 0.99117607 0.991601 1.0143211 0.98878336 1.0019383 0.99711776
1.0018154 0.98925394 1.0277474 1.0032953 1.0402908 1.0287368 0.9860923 1.0003556
1.0002981 0.98544127 0.9940611 1.0422804 0.99295807 0.9889967 1.0307962 0.9949807
1.0288719 1.037024 0.96895444 1.0134833 1.0276802 0.99685377 1.0052985 0.984621
0.99847806 1.0160184 0.9848809 0.984079 0.96492505 1.0362984 0.9770023 0.9977672
1.0196974 1.017261 0.9537512 0.98787785 0.98938626 1.0041989 0.99575335 0.98988354
1.0016637 1.0164437 0.9954338 1.0038526 0.9779422 0.9860583 0.988466 1.0338247
1.0182605 1.0167245 0.96835935 1.0033695 0.98315924 0.9656881 0.9890417 0.95772594
1.0208356 1.0054363 0.97222143 1.0189122 0.9857256 0.987283 1.019467 1.0012695
0.9930396 0.98877317 1.0010306 1.0103302 1.0160854 1.0294124 0.9874808 1.0117352
0.99349886 1.0149727 1.0041182 0.9890425 0.997549 0.96800995 0.9908484 0.9831402
0.98341554 1.0265172 0.9938109 0.9921647 1.0053818 1.0412459 1.0212697 1.023367
00000000: e505 7a3f afec 783f 6a9d 813f b5cc 833f
00000010: 9713 813f e969 803f bdde 803f a81c 7b3f
00000020: 302c 813f 8edf 7d3f e584 7b3f c218 823f
00000030: 9afc 823f 3d76 813f c5ed 803f 4ea2 783f
00000040: 7c35 843f af79 823f 9826 853f 01d0 813f
00000050: 8a02 833f c0f3 783f f10b 823f 86cf 753f
00000060: a19b 813f af51 7f3f 89a2 813f 4370 783f
00000070: e308 843f 9564 7d3f cf34 7c3f 43f8 813f
00000080: dccb 803f ffb7 7c3f f500 773f af7e 7a3f
00000090: 1fed 823f 961d 7d3f 5800 803f e88f 7c3f
000000a0: e087 813f 2af7 7c3f 703d 7f3f dde1 823f
000000b0: 7b7a 833f e8fe 7f3f e327 7a3f 0266 7f3f
000000c0: fe48 7d3f aec2 7b3f 8a9c 803f 4e1a 7e3f
000000d0: de18 7f3f a79c 7d3f f9fc 803f 85f8 7e3f
000000e0: 5a32 823f e52b 803f 7497 7a3f 155e 823f
000000f0: 57f7 793f f808 753f c173 823f 7a69 7c3f
00000100: ea47 7f3f cc52 803f 11fe 7b3f 93a9 813f
00000110: 9332 853f af53 823f 4e02 803f 07fb 813f
00000120: 9409 803f 8254 7c3f 9700 803f 9951 7e3f
00000130: 2538 813f 86d0 793f 99ed 7e3f 0f08 7d3f
00000140: 18e0 843f b5eb 833f 8f03 7e3f ddd8 7a3f
00000150: 88f8 723f fe76 7c3f 5164 813f 4494 7a3f
00000160: 802f 783f 5637 7d3f 7543 813f 0d93 7d3f
00000170: 8351 763f 2f08 7d3f c9a3 7e3f 1994 7d3f
00000180: db62 7f3f 110c 7d3f 55df 803f 86af 803f
00000190: 24c0 793f 8dc8 7e3f 7ce8 823f f09a 803f
000001a0: e445 7b3f caf2 7c3f b444 7e3f 0091 7a3f
000001b0: 32d3 823f 0091 7a3f 563b 7e3f a2a4 823f
000001c0: ed4c 823f 3f8c 7c3f bde1 823f 5403 7e3f
000001d0: 2e6f 803f 36f1 803f 184d 843f 71bc 7c3f
000001e0: 6ed4 7a3f 21dc 7e3f 4bcd 7c3f 7968 7d3f
000001f0: de54 7d3f 26f1 7d3f e214 823f 8974 7d3f
00000200: d4c4 7f3f 04b3 823f ef02 813f 9580 833f
00000210: 407c 7b3f 902d 833f bee2 7e3f 94ed 783f
00000220: eb66 783f d7f9 803f eb97 803f 4a46 7b3f
00000230: c31e 803f 8aa4 7f3f 46eb 823f 15a2 813f
00000240: be90 7b3f d245 7a3f a6e0 7a3f 5330 813f
00000250: 1694 833f de74 803f c3e3 7b3f 566a 7f3f
00000260: 3c56 7b3f b112 833f 586f 813f 7159 823f
00000270: 8354 833f aba7 7b3f 2b81 7e3f 083c 7a3f
00000280: 09b2 803f 439d 7f3f b7bd 7d3f 90d9 7d3f
00000290: 46d5 813f e820 7d3f 843f 803f 1c43 7f3f
000002a0: 7d3b 803f bf3f 7d3f 3a8d 833f fb6b 803f
000002b0: 4028 853f a6ad 833f 8c70 7c3f a70b 803f
000002c0: c509 803f e145 7c3f ca7a 7e3f 7269 853f
000002d0: 8032 7e3f e32e 7d3f 21f1 833f 0eb7 7e3f
000002e0: 13b2 833f 34bd 843f 660d 783f d2b9 813f
000002f0: 068b 833f cf31 7f3f 9fad 803f 1f10 7c3f
00000300: 429c 7f3f e40c 823f 2821 7c3f 9aec 7b3f
00000310: 5405 773f 6da5 843f d31c 7a3f ac6d 7f3f
00000320: 7285 823f 9c35 823f 0a29 743f 90e5 7c3f
00000330: 6b48 7d3f 9789 803f b1e9 7e3f 0269 7d3f
00000340: 8436 803f d41a 823f c0d4 7e3f 3e7e 803f
00000350: 6c5a 7a3f 516e 7c3f 1c0c 7d3f 5e54 843f
00000360: 5c56 823f 0724 823f 66e6 773f 696e 803f
00000370: 53b0 7b3f 5637 773f d631 7d3f 872d 753f
00000380: beaa 823f 23b2 803f 81e3 783f b76b 823f
00000390: 8358 7c3f 94be 7c3f e57d 823f 9929 803f
000003a0: d837 7e3f 3d20 7d3f c521 803f 8052 813f
000003b0: 160f 823f c9c3 833f 8bcb 7c3f 8a80 813f
000003c0: f155 7e3f a0ea 813f f286 803f e431 7d3f
000003d0: 5f5f 7f3f 80cf 773f 3ea8 7d3f 13af 7b3f
000003e0: 1fc1 7b3f ea64 833f 646a 7e3f 81fe 7d3f
000003f0: 5ab0 803f 8c47 853f f7b8 823f b1fd 823f

bias f4 [256]
-0.012314447 -0.015122734 0.015610267 0.035220373 0.019423041 0.010869796 0.014194269 -0.011221627
0.014245894 0.0025108424 -0.0029635457 0.025865734 0.03530254 0.0013770589 0.019091563 -0.016655706
0.043505237 0.031090457 0.052361973 0.019101944 0.030561227 -0.013272485 0.021226231 -0.030129904
0.0067394953 0.009876739 0.019032586 -0.027557017 0.034218952 -0.0022663097 -0.0036045255 0.019043965
0.011999506 -0.0033964324 -0.027422205 -0.011951576 0.029612893 0.0008072639 0.0043692975 -0.0053940234
0.008425628 0.0080819335 0.0036806352 0.03438704 0.03202177 0.012288254 -0.023384105 0.0040405565
-0.0010991984 -0.017022585 0.02300623 0.00063229346 0.0064312136 -0.0058979928 0.013869937 0.0021467784
0.025155649 0.013426799 -0.00046616507 0.016571607 -0.011955133 -0.039624017 0.026101029 -0.011108547
0.007710686 0.021067493 -0.015807921 0.019644551 0.03933119 0.025551913 0.010700799 0.03256408
0.0043529393 0.0034339193 0.014076227 -0.0037903753 0.015672395 -0.018120702 0.01157906 -0.00081635924
0.06343629 0.03419643 -0.0032781148 -0.011977499 -0.03795846 -0.0032513454 0.017130787 -0.007377829
-0.023589663 0.006229034 0.009366238 0.0031229893 -0.02802754 0.013568246 0.007714331 -0.0022525173
0.0030807352 -0.0008139798 0.026366623 0.013222739 -0.006799099 0.0061468375 0.03366252 0.015299441
-0.010445721 -0.012440698 0.0024270902 -0.0130620515 0.024340771 -0.015568199 0.0054459334 0.014227173
0.026148435 -0.005868544 0.02253562 0.007991441 0.018852497 0.014409688 0.04096447 0.00018689604
-0.021463118 0.0014669165 -0.004573793 -0.0001454791 -0.002993608 -0.0006254851 0.021303717 0.0026670578
0.004466314 0.029869428 0.011922564 0.02903682 -0.0048648273 0.0072159907 0.0017983214 -0.017621014
-0.01887279 0.017244268 0.004132276 -0.01356242 0.017514499 0.004368259 0.03403934 0.014125405
-0.006644054 -0.010764101 -0.012593607 0.022054633 0.025812635 0.008922444 -0.008852515 -0.000810185
-0.010722709 0.029105268 0.012829414 0.034711123 0.034217127 -0.004196511 -0.0030155925 -0.0059701614
0.0033113535 -0.005113258 -0.0013840589 -0.0037778928 0.012136861 0.0007616077 0.012946403 -0.0047199586
0.01682263 -0.0033148704 0.04011494 0.0070639392 0.045375004 0.038896643 -0.0026617018 0.0058128573
0.016050326 -0.009535043 0.010480413 0.042717203 -0.0036370547 -0.00041402256 0.03599567 0.0074524223
0.048383348 0.041545674 -0.013191546 0.016156007 0.029003613 0.005719816 0.01964282 -0.006615982
0.010693519 0.022471832 -0.004752834 -0.0059401533 -0.020985037 0.04643963 -0.012693824 0.0023170603
0.026756255 0.026857331 -0.02920516 -0.0001660702 -0.005792367 0.01796572 0.008300851 0.0020882264
0.005696984 0.030207925 -0.00082850485 0.015372518 -0.007741879 -0.01159119 0.001322909 0.041219912
0.024170805 0.025927922 -0.020165993 -0.0042600003 -0.0031524606 -0.014112013 0.00013650194 -0.031125607
0.027018154 0.01257666 -0.021016458 0.033368666 -0.0029137006 -0.004803453 0.03815612 0.0070233364
-0.0064318357 0.00027145643 0.01788205 0.030772302 0.022761669 0.034465905 -0.008099127 0.029891659
0.005473267 0.027486319 -0.0013185303 -0.008899841 0.0066168527 -0.016627347 0.0039114086 -0.008130184
-0.009691981 0.030584065 0.007302156 0.0061761914 0.012460631 0.04278853 0.032537982 0.026317382
00000000: 89c2 49bc 58c5 77bc 35c2 7f3c 3d43 103d
00000010: 121d 9f3c 3b17 323c 148f 683c eada 37bc
00000020: 9c67 693c f28c 243b 0c38 42bb 60e4 d33c
00000030: 6599 103d 6e7e b43a e965 9c3c 8c71 88bc
00000040: 8c32 323d 6ab1 fe3c 8279 563d ae7b 9c3c
00000050: 8a5b fa3c d674 59bc a2e2 ad3c fdd2 f6bc
00000060: fcd6 dc3b 0cd2 213c 3aea 9b3c 41bf e1bc
00000070: 2c29 0c3d 5e86 14bb e739 6cbb 1702 9c3c
00000080: 9399 443c ae96 5ebb 88a4 e0bc 8bd0 43bc
00000090: bd96 f23c 909e 533a 532c 8f3b 59c0 b0bb
000000a0: a50b 0a3c 166a 043c d036 713b 6dd9 0c3d
000000b0: 4229 033d ac54 493c 0690 bfbc a566 843b
000000c0: fa12 90ba f372 8bbc 9077 bc3c 7fc0 253a
000000d0: eebc d23b f343 c1bb bb3e 633c f7b0 0c3b
000000e0: 3813 ce3c 14fc 5b3c 9e67 f4b9 2ec1 873c
000000f0: 76df 43bc cb4c 22bd d3d1 d53c a000 36bc
00000100: eca9 fc3b bc95 ac3c 9d7f 81bc 9ced a03c
00000110: be19 213d 3f52 d13c 6752 2f3c ea61 053d
00000120: 1aa3 8e3b 9b0b 613b fa9f 663c f267 78bb
00000130: 6563 803c de71 94bc 19b6 3d3c f100 56ba
00000140: e3ea 813d 8e11 0c3d a4d5 56bb 463d 44bc
00000150: 557a 1bbd 8614 55bb dd55 8c3c b7c1 f1bb
00000160: 1c3f c1bc ed1c cc3b d974 193c 11ab 4c3b
00000170: 039a e5bc 594d 5e3c 80c8 fc3b f89e 13bb
00000180: 29e6 493b 4261 55ba d1fe d73c 30a4 583c
00000190: faca debb 696b c93b b6e1 093d 82aa 7a3c
000001a0: 8824 2bbc 12d4 4bbc d10f 1f3b 3702 56bc
000001b0: 4c66 c73c c211 7fbc cd73 b23b 1719 693c
000001c0: 3e35 d63c ea4c c0bb 9f9c b83c 88ee 023c
000001d0: 8d70 9a3c 9d16 6c3c 5cca 273d 86f9 4339
000001e0: 6cd3 afbc 8d45 c03a c2df 95bb c08b 18b9
000001f0: 6830 44bb 98f7 23ba 2285 ae3c cec9 2e3b
00000200: 285a 923b bbb0 f43c dc56 433c a0de ed3c
00000210: 2169 9fbb 1e74 ec3b a7b5 eb3a f259 90bc
00000220: 1c9b 9abc da43 8d3c 0b68 873b ea34 5ebc
00000230: 917a 8f3c 9d23 8f3b d66c 0b3d 3e6e 673c
00000240: 5db6 d9bb e95b 30bc 6b55 4ebc ebab b43c
00000250: 0575 d33c 712f 123c 240a 11bc 9862 54ba
00000260: 4dae 2fbc 2c6e ee3c 7632 523c 402d 0e3d
00000270: 4227 0c3d e382 89bb 3fa1 45bb 58a1 c3bb
00000280: 4b03 593b 1e8d a7bb 4f69 b5ba 8696 77bb
00000290: afd9 463c a1a6 473a 261d 543c e2a9 9abb
000002a0: 9dcf 893c 4c3e 59bb 904f 243d 9e78 e73b
000002b0: 24db 393d 1652 1f3d f26f 2ebb c879 be3b
000002c0: f97b 833c de38 1cbc 0ab6 2b3c 3cf8 2e3d
000002d0: a75b 6ebb 2b11 d9b9 3270 133d 7333 f43b
000002e0: 9e2d 463d cc2b 2a3d 5b21 58bc 9a59 843c
000002f0: fc98 ed3c 4b6d bb3b fbe9 a03c e1ca d8bb
00000300: df33 2f3c d916 b83c a9bd 9bbb 9ea5 c2bb
00000310: d0e8 abbc 7b37 3e3d c2f9 4fbc d2d9 173b
00000320: ef2f db3c e803 dc3c a93f efbc 2123 2eb9
00000330: e5cd bdbb d82c 933c 4b00 083c a0da 083b
00000340: c4ad ba3b 9c76 f73c 0530 59ba 04dd 7b3c
00000350: 97af fdbb f9e8 3dbc 7665 ad3a 36d6 283d
00000360: da01 c63c cb66 d43c 2733 a5bc 7997 8bbb
00000370: 8399 4ebb 1336 67bc f621 0f39 21fb febc
00000380: 2d55 dd3c 560e 4e3c b52a acbc 95ad 083d
00000390: c9f3 3ebb 4966 9dbb 9749 1c3d 0424 e63b
000003a0: 26c2 d2bb 4452 8e39 607d 923c 3216 fc3c
000003b0: ae76 ba3c 1f2c 0d3d 33b2 04bc 5adf f43c
000003c0: 1759 b33b fd2a e13c 89d2 acba a4d0 11bc
000003d0: 2fd2 d83b 1336 88bc 462b 803b 7734 05bc
000003e0: 1dcb 1ebc 6f8b fa3c ed46 ef3b a661 ca3b
000003f0: ad27 4c3c 0743 2f3d 8c46 053d 8d97 d73c

running_mean f4 [256]
0.015116192 -0.067763545 0.029483274 0.04123588 -0.030424504 -0.03472605 0.04279988 -0.05560569
0.020689014 -0.03220396 0.018261187 -0.058694616 -0.018083723 -0.047733888 -0.029614529 -0.0028234045
0.036504827 -0.028793992 -0.01147247 -0.06150397 -0.032510523 -0.040209245 0.011339493 -0.031407636
-0.017288791 0.024737494 0.0053059454 -0.039820533 0.013344972 0.016748248 0.009771082 -0.022735938
-0.010331041 0.013073545 -0.05452213 -0.009088481 0.012375637 -0.012576709 0.013373906 0.038660936
-0.0142773595 -0.027646866 0.023120476 -0.041706823 0.012013528 -0.043791965 0.031206924 -0.020133518
-0.004467367 -0.025541361 -0.0392716 0.019207058 0.00091548474 -0.08006915 -0.07783583 0.030389762
-0.0129439095 -0.008783146 -0.0028692184 0.0743874 -0.00588294 -0.036809716 0.009054194 -0.030139653
-0.009291007 -0.031057838 -0.01961725 0.026611544 0.040144254 -0.025288643 -0.01699072 -0.007285616
-0.028836828 0.021974048 0.037608363 -0.03847151 -0.02559606 -0.02248694 -0.005284589 -0.040472906
0.043794043 -0.014832696 0.0011217521 0.045461204 0.0045149922 0.023824835 -0.044117514 0.027493795
0.021119805 -0.02898087 -0.05242814 -0.05040478 -0.0745606 -0.064416096 0.08870365 -0.03304573
0.016869755 0.047063198 -0.019001516 -0.0025668074 -0.037990823 -0.07040852 0.04807972 0.012914891
0.06726771 -0.024749812 -0.012522837 -0.030849073 -0.028214928 -0.044170894 -0.0060431287 -0.012874717
0.013552665 -0.07483749 -0.04129716 0.0035400123 0.036411263 -0.040395796 -0.024194038 0.028185759
-0.00025942415 -0.021438384 0.01956524 -0.0005659494 -0.031326454 0.047183946 -0.014285493 0.020371528
-0.036576133 0.045408744 0.041933656 0.010800885 -0.04618339 -0.0007975556 0.03283513 -0.03662047
0.022453139 -0.002608411 -0.017394554 0.009952261 0.016286626 -0.02496045 -0.01054678 -0.0088734785
-0.01924692 -0.018536475 -0.055155862 -0.012837349 0.014537132 -0.043661084 -0.06553011 0.04498637
0.0066277194 0.0049280883 0.009763992 0.0074253073 -0.048512157 -0.0356778 -0.02778286 0.041239772
-0.00986035 -0.0348528 0.046372224 -0.022328569 0.01778305 -0.016059548 -0.042725097 0.020008104
-0.038756687 -0.036261 0.008692294 -0.03598389 -0.0044680825 -0.042595014 0.018441383 0.006709685
0.05346628 0.0064721373 0.01726472 -0.03237657 -0.056739397 0.0007159612 -0.018055353 -0.0066796723
0.012920828 -0.0010244454 0.0461327 -0.029849457 -0.014075007 -0.052959602 -0.042666707 0.01347404
0.049356095 -0.018612431 0.034539502 -0.04319276 -0.016932137 0.01732654 0.031330876 -0.061563313
-0.0015382385 0.014679387 0.02714381 -0.024822647 -0.016713329 0.034850907 0.0043839347 -0.017946204
-0.02719792 -0.037315883 0.052925844 0.0059207627 -0.020921823 -0.01654952 0.017454911 -0.045137547
-0.057361424 -0.06616224 -0.0062394897 -0.011060456 0.06596597 0.035567682 -0.015264831 -0.026410602
0.044664346 -0.023675255 0.036399763 0.011051799 0.025816051 -0.030572206 -0.0093558505 -0.01569273
-0.0154602695 -0.018099828 -0.03814437 -0.04989375 -0.008282444 -0.0933019 -0.034278948 -0.0189951
0.0054790284 0.01102059 -0.031678863 0.026121093 -0.008867659 0.008002879 0.018215222 0.0568159
-0.0022726434 -0.036303643 0.047809865 -0.020692535 -0.0041679847 0.02089472 -0.009940651 -0.0058939015
00000000: e8a9 773c 9dc7 8abd e886 f13c f4e6 283d
00000010: cf3c f9bc e73c 0ebd ed4e 2f3d cbc2 63bd
00000020: 027c a93c 4de8 03bd 7c98 953c c469 70bd
00000030: 5124 94bc 9c84 43bd 2b9a f2bc de08 39bb
00000040: 1686 153d 61e1 ebbc 07f7 3bbc 96eb 7bbd
00000050: c129 05bd 73b2 24bd 48c9 393c 4ba5 00bd
00000060: 39a1 8dbc 49a6 ca3c 7fdd ad3b db1a 23bd
00000070: dfa4 5a3c 9f33 893c e316 203c b840 babc
00000080: 8743 29bc 6c32 563c 9952 5fbd dae7 14bc
00000090: 2fc3 4a3c 8a0e 4ebc 3a1e 5b3c ee5a 1e3d
000000a0: 96eb 69bc ae7b e2bc 2767 bd3c c6d4 2abd
000000b0: 63d4 443c 345f 33bd aaa5 ff3c 0cef a4bc
000000c0: fe62 92bb 1e3c d1bc 42db 20bd 1f58 9d3c
000000d0: 24fd 6f3a 4bfb a3bd 6468 9fbd f3f3 f83c
000000e0: b112 54bc 2fe7 0fbc 7f09 3cbb 6c58 983d
000000f0: adc5 c0bb c9c5 16bd 0b58 143c 6fe7 f6bc
00000100: 4f39 18bc 026d febc 5bb4 a0bc 7400 da3c
00000110: 4d6e 243d 212a cfbc 1f30 8bbc 2dbc eebb
00000120: 363b ecbc eb02 b43c 3a0b 1a3d 4d94 1dbd
00000130: d4ae d1bc 8836 b8bc 582a adbb ebc6 25bd
00000140: 6261 333d d604 73bc c107 933a 8735 3a3d
00000150: 80f2 933b 4d2c c33c 91b4 34bd ab3a e13c
00000160: 7103 ad3c 4a69 edbc e4be 56bd 3e75 4ebd
00000170: 3ab3 98bd 96ec 83bd 42aa b53d f65a 07bd
00000180: 7132 8a3c 57c5 403d 11a9 9bbc e237 28bb
00000190: 449c 1bbd 5832 90bd 3eef 443d fb98 533c
000001a0: a7c3 893d 1ec0 cabc 962c 4dbc 32b7 fcbc
000001b0: fe22 e7bc 8aec 34bd 7005 c6bb 7af0 52bc
000001c0: ff0b 5e3c 6644 99bd 3627 29bd 8dff 673b
000001d0: fa23 153d 1076 25bd 9332 c6bc d2e5 e63c
000001e0: 5203 88b9 8d9f afbc 4847 a03c 395c 14ba
000001f0: 2b50 00bd f443 413d b30d 6abc 31e2 a63c
00000200: dbd0 15bd 85fe 393d a0c2 2b3d 32f6 303c
00000210: cb2a 3dbd 0d13 51ba 217e 063d 59ff 15bd
00000220: a5ef b73c e0f1 2abb 067f 8ebc cf0e 233c
00000230: 886b 853c dc79 ccbc 67cc 2cbc 1162 11bc
00000240: b7ab 9dbc ced9 97bc 1deb 61bd bf53 52bc
00000250: 272d 6e3c f7d5 32bd a634 86bd a143 383d
00000260: 572d d93b cd7b a13b 27f9 1f3c fe4f f33b
00000270: afb4 46bd e322 12bd e198 e3bc 09eb 283d
00000280: 4e8d 21bc cfc1 0ebd cdf0 3d3d 67ea b6bc
00000290: c2ad 913c 508f 83bc 8300 2fbd 09e8 a33c
000002a0: 55bf 1ebd 6a86 14bd 206a 0e3c d863 13bd
000002b0: fe68 92bb 1c78 2ebd 6212 973c ebdc db3b
000002c0: 75ff 5a3d 3914 d43b be6e 8d3c 4b9d 04bd
000002d0: 9267 68bd 58af 3b3a d2e8 93bc 27e1 dabb
000002e0: e1b1 533c af46 86ba a4f5 3c3d d986 f4bc
000002f0: dc9a 66bc 2bec 58bd 49c3 2ebd 38c2 5c3c
00000300: 9e29 4a3d 1979 98bc 4b79 0d3d e4ea 30bd
00000310: 44b5 8abc 63f0 8d3c ce54 003d d029 7cbd
00000320: b89e c9ba d081 703c b25c de3c dd58 cbbc
00000330: 64ea 88bc d3bf 0e3d 1ca7 8f3b eb03 93bc
00000340: 2cce debc 8ad8 18bd c5c8 583d f502 c23b
00000350: 3e64 abbc dc92 87bc 9afd 8e3c 26e2 38bd
00000360: d0f3 6abd 1280 87bd a274 ccbb ea36 35bc
00000370: 2b19 873d 6baf 113d 5719 7abc 0c5b d8bc
00000380: f6f1 363d 9cf2 c1bc eb17 153d 9b12 353c
00000390: 2f7c d33c 9072 fabc 4849 19bc 0a8e 80bc
000003a0: 124d 7dbc 1746 94bc 453d 1cbd 645d 4cbd
000003b0: 17b3 07bc 1115 bfbd 1568 0cbd 9d9b 9bbc
000003c0: 6c89 b33b b48f 343c b2c1 01bd e7fb d53c
000003d0: a849 11bc 821e 033c 1738 953c cab7 683d
000003e0: a1f0 14bb 21b3 14bd 47d4 433d 6483 a9bc
000003f0: 9793 88bb 672b ab3c 1dde 22bc a121 c1bb

running_var f4 [256]
0.3410932 0.34955177 0.28394917 0.35644686 0.32556322 0.31294918 0.3674709 0.3062286
0.30732983 0.33375812 0.26023015 0.23144564 0.29476354 0.31302923 0.27838728 0.36538216
0.28378573 0.29864925 0.23350127 0.29744878 0.30253953 0.28151646 0.32381737 0.32357517
0.2903824 0.31869915 0.26811153 0.36183128 0.2765335 0.30070361 0.2827825 0.30346245
0.33521822 0.31123924 0.32809934 0.3050648 0.2972151 0.28808543 0.2713852 0.3228276
0.30122513 0.321754 0.36889127 0.30980083 0.2999792 0.28213942 0.35763624 0.28454825
0.35198915 0.32886428 0.3047293 0.3679734 0.34997568 0.27682298 0.3308776 0.32781678
0.27888587 0.30536494 0.3614367 0.33504158 0.34740725 0.31533143 0.29838777 0.33002496
0.31373295 0.29885128 0.26921257 0.30406272 0.25154224 0.3475744 0.3512478 0.25821143
0.30408153 0.31827614 0.31626126 0.28568235 0.3142818 0.33989924 0.34259924 0.34467095
0.24045727 0.3217934 0.28300017 0.31008062 0.3460525 0.31107715 0.28352255 0.32235077
0.2920464 0.32968965 0.32611606 0.30338532 0.2860765 0.31274545 0.3024383 0.3308361
0.30450967 0.28051832 0.30029863 0.3379247 0.3025757 0.32308552 0.28591996 0.3199601
0.28065252 0.3202689 0.3506638 0.29350945 0.30990052 0.35040408 0.33080634 0.28938383
0.33185497 0.32324442 0.2929281 0.3086383 0.2765902 0.29487744 0.27143818 0.31512102
0.336374 0.34544882 0.35070902 0.29091123 0.31103334 0.2993949 0.3087375 0.30246273
0.26975322 0.24853577 0.36108276 0.2805523 0.33493492 0.3167386 0.31278667 0.3206266
0.3485203 0.34027284 0.33554214 0.31859624 0.3304134 0.33673957 0.30848768 0.30835634
0.2844173 0.3392069 0.30904344 0.2932876 0.30356815 0.37544948 0.342222 0.34055176
0.3081722 0.26791102 0.31255886 0.24474712 0.28852886 0.3136166 0.3414775 0.3132575
0.30825797 0.27630195 0.3595352 0.3727764 0.27836442 0.3288607 0.26593298 0.26094794
0.29483762 0.3619964 0.2831835 0.2992592 0.25783807 0.32158637 0.38855827 0.30420977
0.29923615 0.3545271 0.328585 0.29220834 0.29883423 0.3105106 0.3516768 0.32388675
0.26760787 0.26104993 0.3558003 0.32928053 0.27846083 0.32715857 0.35976848 0.32440627
0.29762512 0.27241185 0.2956811 0.34446645 0.30036372 0.28236514 0.3467929 0.32148397
0.2964654 0.27020755 0.34917918 0.31797773 0.35169423 0.31947833 0.29570842 0.3149664
0.27891985 0.26962936 0.36040428 0.34746167 0.3100621 0.28731963 0.2915424 0.28074762
0.26311272 0.3436502 0.340161 0.28891867 0.34980485 0.3620997 0.29190242 0.35229203
0.2797168 0.29804474 0.31808212 0.29610682 0.32801688 0.27186915 0.29450852 0.2874373
0.28509194 0.35727257 0.29913843 0.32114908 0.2968737 0.261989 0.33986866 0.30720356
0.3178248 0.32043442 0.25241694 0.3023976 0.2902724 0.37211797 0.34097767 0.33662683
0.29788283 0.2793725 0.31388703 0.2707818 0.27437752 0.3087123 0.3249858 0.26384634
00000000: c5a3 ae3e 73f8 b23e c961 913e 3480 b63e
00000010: 39b0 a63e e03a a03e 2525 bc3e ffc9 9c3e
00000020: 565a 9d3e 58e2 aa3e e33c 853e 1600 6d3e
00000030: 3feb 963e 5e45 a03e c788 8e3e 5f13 bb3e
00000040: 5d4c 913e 8ee8 983e f51a 6f3e 354b 983e
00000050: 76e6 9a3e ed22 903e 64cb a53e a5ab a53e
00000060: 00ad 943e 892c a33e ea45 893e f341 b93e
00000070: cd95 8d3e d3f5 993e dec8 903e 6e5f 9b3e
00000080: b9a1 ab3e c05a 9f3e a3fc a73e 7431 9c3e
00000090: 942c 983e ef7f 933e 00f3 8a3e a949 a53e
000000a0: 2e3a 9a3e f1bc a43e 51df bc3e 379e 9e3e
000000b0: e096 993e 9474 903e 191c b73e 4fb0 913e
000000c0: ec37 b43e e660 a83e 7b05 9c3e 0267 bc3e
000000d0: 0330 b33e bebb 8d3e ca68 a93e 9ad7 a73e
000000e0: 21ca 8e3e cb58 9c3e 3b0e b93e 928a ab3e
000000f0: 5ddf b13e 1f73 a13e 48c6 983e 08f9 a83e
00000100: 9ba1 a03e 0903 993e 3bd6 893e 1cae 9b3e
00000110: 25ca 803e 46f5 b13e c0d6 b33e 4a34 843e
00000120: 93b0 9b3e 17f5 a23e ffec a13e f544 923e
00000130: 8be9 a03e 4607 ae3e 2b69 af3e b678 b03e
00000140: 6e3a 763e 1bc2 a43e 66e5 903e e3c2 9e3e
00000150: cb2d b13e 8145 9f3e de29 913e 290b a53e
00000160: 1b87 953e 15cd a83e aff8 a63e 5255 9b3e
00000170: 9e78 923e 2c20 a03e 31d9 9a3e 5963 a93e
00000180: b1e8 9b3e 19a0 8f3e bec0 993e 7704 ad3e
00000190: 34eb 9a3e 776b a53e 1a64 923e cfd1 a33e
000001a0: b0b1 8f3e 49fa a33e 358a b33e df46 963e
000001b0: 48ab 9e3e 2a68 b33e 735f a93e 1e2a 943e
000001c0: e5e8 a93e 4b80 a53e acfa 953e d705 9e3e
000001d0: 3b9d 8d3e 2dfa 963e f2f9 8a3e 8b57 a13e
000001e0: 3739 ac3e abde b03e 2290 b33e 51f2 943e
000001f0: c33f 9f3e 4a4a 993e d712 9e3e 65dc 9a3e
00000200: 181d 8a3e 2980 7e3e d7df b83e 8da4 8f3e
00000210: 977c ab3e 902b a23e 9325 a03e 2b29 a43e
00000220: 4171 b23e 3e38 ae3e 2ecc ab3e 0c1f a33e
00000230: f22b a93e 2169 ac3e 19f2 9d3e e2e0 9d3e
00000240: 259f 913e 87ac ad3e f13a 9e3e cb29 963e
00000250: 496d 9b3e ea3a c03e b937 af3e cd5c ae3e
00000260: bfc8 9d3e a22b 893e b707 a03e fd9e 7a3e
00000270: 0eba 933e 5b92 a03e 24d6 ae3e 4963 a03e
00000280: fdd3 9d3e 7377 8d3e ff14 b83e 8cdc be3e
00000290: c885 8e3e 6e60 a83e 5e28 883e f89a 853e
000002a0: f5f4 963e 9857 b93e 6dfd 903e 8038 993e
000002b0: 5a03 843e f8a6 a43e 1cf1 c63e 62c1 9b3e
000002c0: 7b35 993e 9384 b53e 4b3c a83e 559c 953e
000002d0: cd00 993e 3ffb 9e3e fb0e b43e 7cd4 a53e
000002e0: e603 893e 56a8 853e 752b b63e 7597 a83e
000002f0: 6b92 8e3e 5481 a73e 9333 b83e 9418 a63e
00000300: 5262 983e 9179 8b3e 8363 973e e85d b03e
00000310: 46c9 993e 2a92 903e d78e b13e 8c99 a43e
00000320: 50ca 973e a558 8a3e 9dc7 b23e facd a23e
00000330: 4411 b43e aa92 a33e 1867 973e 4743 a13e
00000340: 95ce 8e3e dc0c 8a3e e986 b83e 7fe6 b13e
00000350: 76c0 9e3e 8f1b 933e 0c45 953e 27be 8f3e
00000360: b6b6 863e ebf2 af3e 9529 ae3e 26ed 933e
00000370: 9f19 b33e 2265 b93e 3c74 953e 9f5f b43e
00000380: 0a37 8f3e 5299 983e a9db a23e 509b 973e
00000390: d4f1 a73e 6f32 8b3e d2c9 963e fb2a 933e
000003a0: 92f7 913e 6eec b63e ac28 993e a76d a43e
000003b0: d4ff 973e 6c23 863e 4403 ae3e c949 9d3e
000003c0: efb9 a23e fb0f a43e cb3c 813e dcd3 9a3e
000003d0: 969e 943e 3f86 be3e a094 ae3e 5a5a ac3e
000003e0: 1984 983e ea09 8f3e cdb5 a03e e9a3 8a3e
000003f0: 367b 8c3e 8a0f 9e3e 8a64 a63e de16 873e

weight f4 [256, 387]
-0.031861812 -0.0013712661 -0.029328251 0.037174873 0.029467551 0.04270539 -0.045160685 -0.03764471
-0.043685287 0.0006080749 0.014986986 -0.0826926 -0.005580187 0.016623672 -0.011870829 -0.031008564
0.047418192 -0.030330205 0.04680876 -0.06361977 0.0134658 0.024717614 -0.014061748 0.03770603
-0.010553122 -0.042028364 -0.0027828768 -0.010992289 -0.0017595892 -0.039104037 0.0107825985 0.021312594
0.07941861 -0.029387712 0.038975168 -0.051137283 0.038036127 -0.023442216 -0.06245409 0.066743866
0.025150428 0.0031504033 -0.034110058 -0.014768207 -0.039545648 -0.050168812 -0.022489524 -0.034861766
-0.0016585598 0.043011133 0.04756766 -0.041538972 -0.016172776 0.022525726 -0.047163136 -0.03852317
0.011727979 0.027108729 0.03773934 0.0008373982 -0.03129869 -0.017111497 0.025782391 0.023533262
0.017586969 -0.003708052 0.0014449279 0.013268435 -0.006415835 -0.03625154 0.026588889 -0.028485693
0.03374835 0.023137895 -0.03626859 0.012399015 -0.0039024753 0.01995357 -0.040651612 0.036909852
-0.026945634 0.034120448 0.045848317 0.059440527 0.025155697 -0.03163237 0.016072726 -0.03886843
-0.04831107 -0.035982884 -0.012801375 0.012991449 -0.03338954 -0.026398001 -0.021845732 0.01640183
-0.048996687 -0.008431748 0.05609601 0.058477286 0.009302715 0.018845063 -0.02216933 0.010998354
-0.051347878 0.006506873 0.044357553 -0.0028548376 0.03829667 0.056571573 -0.026220245 -0.040517785
-0.030985124 0.009730863 -0.019548398 0.047449447 -0.03592612 -0.0023029353 0.018539928 0.022124913
-0.026044896 0.03652073 -0.036637384 -0.020212237 0.011816804 0.028689688 0.0024651338 0.015470626
0.04653882 0.04107211 -0.046018537 0.023436889 -0.037800692 -0.053750187 -0.012693928 0.006597843
-0.015780948 -0.03496842 -0.0153604215 -0.025530227 -0.023949413 -0.019196333 -0.058263857 -0.0028611876
-0.062065057 -0.054159556 -0.0021997874 0.012656066 0.06000461 -0.01991854 0.039453194 -0.011661008
-0.05034628 -0.018451333 0.004390845 -0.039303612 -0.006461006 0.03815291 -0.034243185 0.06455778
0.0078095505 0.05228884 -0.0529043 0.012825149 0.022680454 0.015125367 0.0856929 0.0043857154
-0.0013113811 -0.04059954 0.051901635 -0.040362045 -0.0005206282 0.06268494 0.034465592 0.039117984
-0.0028492787 0.010428188 -0.04972439 0.037676662 0.0034805103 0.0009921463 0.03609305 0.04427554
-0.0405843 0.0032003478 -0.04949218 -0.04407781 -0.0035806904 0.021506945 0.040335257 0.027546935
0.0125938775 0.012296528 -0.03609871 -0.059107866 -0.015778717 0.060261775 0.011622028 -0.008864592
0.04132644 0.04081403 -0.03754869 -0.041433245 -0.0062519303 0.043348502 -0.06733136 -0.03821111
-0.005355164 -0.005787745 -0.028435064 0.025000382 0.041599568 -0.03298897 0.010242783 -0.05235285
-0.0064487685 -0.0050488347 0.02425545 0.016531274 0.012511235 -0.005247161 -0.02772994 0.033087477
0.054761782 0.0025833978 -0.00312499 0.008067127 -0.016214449 0.046345077 0.019347852 0.012713379
-0.042899694 0.013101498 -0.015566978 -0.042682428 0.041390825 -0.036153547 -0.00526848 0.037617527
0.040452544 0.015397502 -0.02965951 -0.0064952066 -0.060550764 -0.038385082 0.020309392 -0.020959515
-0.015256694 -0.016148757 -0.027304089 0.023883147 -0.050629873 0.03369725 0.004359121 0.014426486
00000000: 8881 02bd 0ebc b3ba cd41 f0bc ae44 183d
00000010: ef65 f13c d9eb 2e3d 69fa 38bd 5731 1abd
00000020: 58ef 32bd 3767 1f3a fa8b 753c bd5a a9bd
00000030: 00da b6bb 5e2e 883c de7d 42bc ac05 febc
00000040: 9439 423d 0d77 f8bc 8bba 3f3d 154b 82bd
00000050: a99f 5c3c 987c ca3c 3f63 66bc a371 1a3d
00000060: 00e7 2cbc ef25 2cbd ed60 36bb 0019 34bc
00000070: 04a2 e6ba 8e2b 20bd 7fa9 303c c097 ae3c
00000080: 39a6 a23d 80be f0bc 6da4 1f3d 5475 51bd
00000090: c5cb 1b3d e409 c0bc dccf 7fbd 02b1 883d
000000a0: 4508 ce3c ff76 4e3b fdb6 0bbd 5af6 71bc
000000b0: 9efa 21bd d07d 4dbd f33b b8bc 36cb 0ebd
000000c0: 0864 d9ba 712c 303d 4fd6 423d c524 2abd
000000d0: c57c 84bc df87 b83c 222e 41bd 79ca 1dbd
000000e0: b626 403c 2013 de3c 9194 1a3d d884 5b3a
000000f0: 0e33 00bd 692d 8cbc 9835 d33c d4c8 c03c
00000100: 8c12 903c ca02 73bb bc63 bd3a da63 593c
00000110: ed3b d2bb 7f7c 14bd f1d0 d93c d45a e9bc
00000120: b63b 0a3d af8b bd3c 5f8e 14bd 3d25 4b3c
00000130: acc0 7fbb ab75 a33c 4e82 26bd c92e 173d
00000140: 17bd dcbc e2c1 0b3d 72cb 3b3d e977 733d
00000150: 5213 ce3c f290 01bd f3aa 833c 8134 1fbd
00000160: d4e1 45bd ca62 13bd dcbc 51bc 16da 543c
00000170: 78c3 08bd 9f40 d8bc d2f5 b2bc 215d 863c
00000180: c0b0 48bd 5025 0abc eec4 653d e185 6f3d
00000190: 6a6a 183c f660 9a3c 749c b5bc 7132 343c
000001a0: 2752 52bd 9b37 d53b 44b0 353d 3a18 3bbb
000001b0: f8dc 1c3d 98b7 673d d7cb d6bc faf5 25bd
000001c0: 84d4 fdbc 336e 1f3c f623 a0bc 5a5a 423d
000001d0: 4427 13bd d8ec 16bb 0ce1 973c 4e3f b53c
000001e0: 1b5c d5bc c396 153d 1511 16bd 2294 a5bc
000001f0: 459b 413c a306 eb3c 158e 213b 8278 7d3c
00000200: 7d9f 3e3d 3b3b 283d ef7d 3cbd b8fe bf3c
00000210: e6d4 1abd 2829 5cbd 31fa 4fbc b832 d83b
00000220: 0c47 81bc 0c3b 0fbd 47aa 7bbc c424 d1bc
00000230: 8f31 c4bc a141 9dbc 15a6 6ebd c382 3bbb
00000240: ee37 7ebd 69d6 5dbd 4f2a 10bb 635b 4f3c
00000250: 65c7 753d 352c a3bc ac99 213d d00d 3fbc
00000260: e737 4ebd 4027 97bc 14e1 8f3b d3fc 20bd
00000270: d9b6 d3bb 3a46 1c3d 9542 0cbd df36 843d
00000280: 42e7 ff3b d32c 563d 2eb2 58bd 9320 523c
00000290: 5ccc b93c 63d0 773c c27f af3d 0cb6 8f3b
000002a0: a6e2 abba b44b 26bd cf96 543d ac52 25bd
000002b0: c47a 08ba f660 803d cb2b 0d3d 2e3a 203d
000002c0: f7ba 3abb feda 2a3c cdab 4bbd d852 1a3d
000002d0: 4619 643b e80a 823a 4ed6 133d 455a 353d
000002e0: b93b 26bd edbc 513b 50b8 4abd ef8a 34bd
000002f0: 04aa 6abb 552f b03c 9536 253d 1caa e13c
00000300: 8d56 4e3c 6077 493c 3edc 13bd 171b 72bd
00000310: 5e42 81bc 0dd5 763d 526a 3e3c cb3c 11bc
00000320: ea45 293d 9d2c 273d a8cc 19bd e8b5 29bd
00000330: fedc ccbb 338e 313d 06e5 89bd 4183 1cbd
00000340: 5f7a afbb 20a7 bdbb a7f0 e8bc 9acd cc3c
00000350: 4f64 2a3d 711f 07bd 59d1 273c f16f 56bd
00000360: 3150 d3bb b270 a5bb 5eb3 c63c 986c 873c
00000370: ecfb 4c3c 60f0 abbb e629 e3bc bc86 073d
00000380: e44d 603d 394e 293b a2cc 4cbb fc2b 043c
00000390: 2ad4 84bc 56d4 3d3d 637f 9e3c c74b 503c
000003a0: 97b7 2fbd aaa7 563c a30c 7fbc c5d3 2ebd
000003b0: 6d89 293d be15 14bd 37a3 acbb d614 1a3d
000003c0: 91b1 253d ce45 7c3c 80f8 f2bc bed5 d4bb
000003d0: 1404 78bd ad39 1dbd e25f a63c 4ab3 abbc
000003e0: 36f7 79bc 664a 84bc d3ac dfbc 97a6 c33c
000003f0: 4561 4fbd 2106 0a3d f5d6 8e3b 115d 6c3c
